Project/Assets/ML-Agents/Examples/3DBall/TFModels/3DBall 1.onnx (onnx, 77016 bytes, 9 tensors)

network_body.observation_encoder.processors.0.normalizer.running_mean f4 [8]
00000000: 637e 56ba 67a6 37bb 842c 18be ed33 4340
00000010: 90bf db3e 6f56 083b 25b7 8dbe c8b8 e839
-0.0008182285 -0.0028022768 -0.14860731 3.0500443 0.42919588 0.0020803472 -0.2767879 0.0004438816

network_body._body_endoder.seq_layers.0.weight f4 [128, 8]
00000000: 64c6 eb3b 1593 963d f120 a83e e9fc a83d
00000010: 55f2 2dbc 9482 643f 3b6d 0dbe 1fb7 babe
00000020: 1d71 7e3e c4dc 2a3f 6437 e53c 870a 1dbf
00000030: 0a17 883e a8a1 dabe eaed 8a3d 5504 cfbe
00000040: b15c dc3e 634b cabd 2c02 06bf 13aa 88be
00000050: 5038 7e3d 4e43 45bf b6a6 6ebb 22c8 553e
00000060: fc61 63be a421 ed3b e930 bfbe d6c9 b5be
00000070: 8746 bc3d 3ecf 1b3c 0fa9 e83e 10e0 c1be
00000080: b5ff 8ebd 2e39 533c edfa 5dbe 445d b03e
00000090: 5b0c 78be dcb9 8d3d 7338 be3d 9430 e63e
000000a0: 812d 8b3e 545d 203f b821 13be 29d5 d53e
000000b0: 8315 573e cac5 023c 8be0 09bf d0fe 66be
000000c0: 9d61 d3be 0b47 f03d d826 f6be e6c2 8c3e
000000d0: 322c 0b3f fd53 a5be 2e8e 0bbe 07af c53d
000000e0: a173 933f 1438 24be 5271 24bd 54a8 703e
000000f0: 9552 4fbe 2cb3 f03d 6971 13bf 434a 223f
00000100: 394f dbbe 9b91 3c3f ad94 f4be ef09 e0bb
00000110: d80d cebe c468 b0bd 7a27 e2be 95cc 9bbd
00000120: 2aff b5bc 9ef7 01bd 190f 03be 9f8d 8a3d
00000130: 77aa de3d 2c54 a0be 024a ab3e ee80 b93e
00000140: bbcb 8dbf 69f9 c33e 8f24 4c3e 491d 3d3e
00000150: 40d2 c3be b8fe 63be 15a4 e8be 5eff 12be
00000160: f1d1 323e 09ab 943d f0bb 3ebc fb33 2bbf
00000170: f74b 0dbe fb10 16be 5730 d9be cd2a 29be
00000180: adb5 31bf 5f7c 6f3f a391 a63d 5584 f03e
00000190: f47f 643d 6c3c bc3c 18c1 54be 9669 6e3d
000001a0: db4a 56be 7002 ca3d 0d2b be3e 3687 4dbf
000001b0: c334 00bf e8de 153d 15a8 12bd a0e7 cc3e
000001c0: a835 20bf faba de3b 6bcc cebd e10d 173f
000001d0: 389a c23e 0a87 b13d 0adc 9ebd a0d9 8cba
000001e0: 5ef9 7c3e 30ad 28be 0746 293f 7435 7c3d
000001f0: cd91 8f3e 0e4c 9fbd f5c8 bc3e dbda ed3d
00000200: 85e8 a9bd 47a6 3d3f 395f df3c bb64 9b3e
00000210: b4ae 003e dc15 053f f058 43be 9dc7 023f
00000220: 2a63 a1be a0f7 a7bd b6cd 3b3e cddb 173e
00000230: e6c8 5abd c374 6d3e 9a46 01bf fbbb 28be
00000240: 360d 463f cb09 973e 668f d63e f2f4 65be
00000250: d1c6 fcbd ef55 debd 9fbb 9c3e f0c8 6cbf
00000260: 9fe0 593d 7a80 9dbe 9cb0 cb3d c292 8b3d
00000270: 475c be3e f49f 61be ff70 dc3e a565 8ebe
00000280: 70f3 5ebe f7f1 29be b45a 5abe 424a f93d
00000290: 7959 29be 2830 edbe 8d71 5d3e 386a 16bf
000002a0: ca95 cb3e 0ffb bcbd 287e bebd 16fc c6bd
000002b0: 0b01 cebe 8230 dabe e631 563d 451c e2be
000002c0: d28c b23c fc0f 303e 051c d0bd b03e ab3d
000002d0: f48c e83b e64a 433f 1cf7 483d 4feb 7d3e
000002e0: 219d 9abe 7946 0c3e bcfe cabd 290f 0d3d
000002f0: 8bc9 5c3e 5657 c33e b6c0 753e 0aee af3d
00000300: bacb 2ebf 4117 c6be 3391 d43d 5f93 1a3f
00000310: 3d66 a1be ebf6 d7be caef 383e e1e6 f73e
00000320: a4fd 193f ed67 0bbe 6202 8cbe e3db a93e
00000330: 845c 10be 6a5c 2fbf da9f 6fbe d212 393c
00000340: 35ec 1f3e d3be 08bf c406 063e 5412 69bc
00000350: cb8d 67bd 2ee7 07bd 0fe0 263e d2b3 2fbf
00000360: f772 ad3e c777 333d eff1 ac3e 804f 2abe
00000370: f8fa 20bf a1bb 03be 7d3d 3fbf a9f9 963e
00000380: 9a19 d13d 7c67 0dbe c414 783e b594 553e
00000390: 8859 c43e 4a69 24bf 0273 53bf 743b 9c3e
000003a0: ee12 0bbe 283c 38be 6b37 5fbe 4685 8b3d
000003b0: b4b3 5ebe 0267 35be 14d0 61bf aa4a 3fbe
000003c0: e8e3 3d3f e1e2 0f3d deb3 af3e 15c4 03bf
000003d0: cb47 cf3d bb62 a03e eba9 81be bc0b 6f3e
000003e0: 1296 d9ba 4a84 443e 8e66 fcbe 818d eebc
000003f0: 13ac 51bd 18de 0abe 977d ec3e 05f2 273e
0.007195281 0.073522724 0.32837632 0.08251364 -0.0106168585 0.89261746 -0.138112 -0.36467835
0.24847837 0.6674311 0.027980514 -0.6134419 0.26580077 -0.4270146 0.0678366 -0.40432993
0.43039468 -0.0987766 -0.52347064 -0.26692256 0.062065423 -0.77055824 -0.0036415285 0.20877126
-0.22205347 0.0072366763 -0.37342003 -0.3550555 0.091931395 0.00950986 0.4544148 -0.3786626
-0.06982366 0.012892051 -0.21677752 0.34446156 -0.24223463 0.069202155 0.092881106 0.44958937
0.27183154 0.6264241 -0.14368331 0.4176419 0.210043 0.007981727 -0.5385825 -0.22558141
-0.4128541 0.117323 -0.4807651 0.27492446 0.5436431 -0.3229064 -0.13628456 0.096525244
1.1519662 -0.16037017 -0.040147133 0.23501712 -0.20246346 0.11752924 -0.57594925 0.63394564
-0.4283388 0.73659676 -0.4776968 -0.0068371217 -0.40244937 -0.086137325 -0.44170743 -0.0760738
-0.022216398 -0.031730287 -0.12798728 0.06765293 0.10872357 -0.31314218 0.334549 0.36231178
-1.1077799 0.38276222 0.19935821 0.18468203 -0.38246346 -0.22265136 -0.45437685 -0.14355227
0.17462899 0.07259185 -0.0116414875 -0.6687619 -0.1379851 -0.14654915 -0.42419693 -0.16520233
-0.6941784 0.9354915 0.08133247 0.4697596 0.055786088 0.02297803 -0.20776784 0.058206163
-0.20926993 0.09863746 0.3714222 -0.8028444 -0.5008051 0.036589533 -0.035804827 0.40020466
-0.6258187 0.0067971917 -0.100975834 0.5900555 0.38008285 0.08668335 -0.07756813 -0.001074601
0.24704501 -0.16472316 0.6612248 0.061574414 0.28040925 -0.07778178 0.36872068 0.11614009
-0.08296303 0.74081844 0.027267085 0.3035029 0.12566644 0.5198648 -0.19076896 0.51085836
-0.3152097 -0.082015276 0.18340191 0.14829941 -0.053414248 0.23189072 -0.50498354 -0.16477959
0.7736391 0.2949966 0.4190628 -0.2245672 -0.12342609 -0.10856234 0.30611894 -0.92494106
0.05319273 -0.30762082 0.09945795 0.06815101 0.37179777 -0.22033674 0.4305496 -0.27811924
-0.21772552 -0.16596209 -0.21323663 0.12172367 -0.16538037 -0.46325803 0.21625347 -0.58755827
0.39762717 -0.09227573 -0.09301406 -0.0971605 -0.4023517 -0.42615134 0.05229368 -0.44162193
0.021795664 0.17193598 -0.10161594 0.08361566 0.007096881 0.7628616 0.049063787 0.24796794
-0.30198005 0.13698758 -0.09911868 0.034438286 0.21561258 0.3815257 0.23999295 0.08590324
-0.6827961 -0.38689616 0.10379257 0.6038112 -0.31523314 -0.4218057 0.18060222 0.48418334
0.6015265 -0.13613863 -0.27345568 0.33175573 -0.14097792 -0.6850039 -0.23400822 0.011295991
0.1561745 -0.53416175 0.13088518 -0.014225561 -0.05653171 -0.033179455 0.16296409 -0.6863376
0.33876774 0.0438154 0.3377833 -0.1663189 -0.6288295 -0.12864543 -0.747032 0.2948735
0.10209961 -0.13809007 0.24226671 0.20857508 0.38349557 -0.6422316 -0.82597363 0.3051411
-0.1358144 -0.17991698 -0.21798484 0.06812529 -0.21748239 -0.17715076 -0.8820813 -0.18680826
0.7417588 0.035128478 0.34316915 -0.5147107 0.10121115 0.31325325 -0.2532495 0.2334432
-0.001660051 0.1919109 -0.49296993 -0.029120209 -0.051189493 -0.13561285 0.46189567 0.16400917

network_body._body_endoder.seq_layers.0.bias f4 [128]
00000000: bb84 af3c 9361 8cbd 3dea b0bd b29f 193d
00000010: 7513 cfbc b872 f9bb 2e56 1ebd 6bd0 17bd
00000020: 9eb4 4cbd 42c6 4cbb ad94 973c ce73 32bd
00000030: ef59 dcbc f30c 43bd bd09 a7bb dcf7 b3bd
00000040: 6cbf 153c f7e0 f7bc 6fdf 943c 8436 d63c
00000050: e9d1 bcbc 2b2e 133c 5db8 12bd 90aa 74bd
00000060: ec33 3bbd 1422 2d3b 9d26 df3c a39c 4dbd
00000070: 3fe4 50bd 6787 f3ba a106 9cbd cf7e f5bc
00000080: f8d1 0d3c 95a7 b13c ebe2 a7bd ae5d 58bc
00000090: 9d19 50bd 8616 7a3d 879b 1ebc 9114 753d
000000a0: 9191 f5bc 5d3b bf3b 8437 7f3b 9a3d 8bbc
000000b0: 0179 2b3c d7f2 d8bc e5e5 253d 7f8a a13c
000000c0: f479 cabc e0cd 0fbd 81e7 3abd 5df8 4cbd
000000d0: ff33 d3bc 32c9 733d e71b d2bc 3f78 0bbd
000000e0: 0172 3dbd cb7b 33bc a5d0 cabd 996e cdbc
000000f0: 3eec dc3b 3050 4ebd e1f5 bebd 00a0 ffbc
00000100: e9c6 8cbd e9ca 5c3d 745a 453d 4a17 0c3d
00000110: 93f0 b9bc 1563 293d 1617 183d df73 55bd
00000120: 0947 09bc 6797 0fbc 3819 053c 8155 9abb
00000130: b6a5 b4bc 4b1d 413d 4d16 a23b 2c12 24bd
00000140: 6d6c f43c f8c0 513b 0c07 d2bc b72d c2bd
00000150: 1b60 213c e059 293d f5b2 fcbc 5825 5bbd
00000160: 57b2 d939 c9e1 81bc 8337 b5bc ea21 853c
00000170: 1adf ecbc 8ca0 f83c 6981 45bd 4f7c 133a
00000180: f252 85bd 1e7c 8fbd daf8 293c f6d1 cf3c
00000190: 77f8 463b 81ac 513c 3ec5 67bd c4ab 093c
000001a0: 6fac f23a c2b8 92bc 9f3d 693a 0543 a23d
000001b0: 4000 bcba 4680 f13c 9556 42bd 197c 06bd
000001c0: ec44 6dbd b652 19bd 0b4a acbc 4054 0c3d
000001d0: 5ca9 2b3b 3e8d 82bc 585f 05bd 41a2 4e3c
000001e0: a378 1bbd ace7 7cbd bd6f 553d c48f 68bc
000001f0: d15e 1dbd 9bcd 6a3b 12bf 00bd 4d66 443a
0.021425596 -0.06854548 -0.086384274 0.037505813 -0.025277833 -0.0076125525 -0.038656406 -0.037063997
-0.049976937 -0.00312461 0.018503511 -0.04356747 -0.026898352 -0.04761977 -0.0050975964 -0.0878751
0.009139877 -0.030258639 0.018172948 0.026149042 -0.023049312 0.008983175 -0.035820354 -0.059732974
-0.045703813 0.0026418017 0.027240092 -0.05019821 -0.050998922 -0.0018579782 -0.07618452 -0.029967694
0.0086560175 0.021686355 -0.08197578 -0.013205929 -0.050805677 0.061056636 -0.009680635 0.059834067
-0.029976638 0.005835934 0.0038943002 -0.016997147 0.010465861 -0.026482983 0.040502448 0.01971936
-0.024716355 -0.035108447 -0.045630936 -0.050041545 -0.02578163 0.059518047 -0.02564807 -0.034050222
-0.0462513 -0.0109548075 -0.09903077 -0.025077151 0.0067420295 -0.05036944 -0.093242414 -0.031204224
-0.068738766 0.053904448 0.048181966 0.034201898 -0.022697723 0.041354258 0.03713139 -0.052112456
-0.0083787525 -0.0087641245 0.008123688 -0.0047099 -0.022051673 0.047147077 0.004946506 -0.040056393
0.029836858 0.0032005887 -0.025638126 -0.09481376 0.0098495735 0.041345477 -0.030847052 -0.05350241
0.0004152234 -0.015854733 -0.022121197 0.016251523 -0.028914977 0.030349992 -0.04821912 0.00056261284
-0.06509961 -0.07006095 0.010374272 0.025368672 0.00303605 0.012797476 -0.05658459 0.0084027685
0.0018514524 -0.017910365 0.0008897427 0.07922939 -0.0014343336 0.02948011 -0.047445852 -0.032833192
-0.057927057 -0.037432395 -0.0210314 0.034260035 0.0026193475 -0.01593649 -0.03256163 0.0126119265
-0.037956845 -0.061744377 0.052108515 -0.014194433 -0.038420502 0.0035828117 -0.03143222 0.00074920506

network_body._body_endoder.seq_layers.2.weight f4 [128, 128]
00000000: d5d7 d6bd d01a 4cbe 64bc c2bc 1ff1 9cbd
00000010: 3313 773d 05b5 56bd a103 5c3d b3ee 283d
00000020: a1ee dc3d ff0c 403e 6483 ccbd 94d8 f0bd
00000030: 3ffa 883e 3087 c1bd 2908 81bc b630 5abd
00000040: b82c 0e3e 1f6e 03be a052 8ebd 3f9e 72bb
00000050: 1aac 323d 3720 cbbd bb39 e1bd f446 89bb
00000060: a16d 663d 8624 193e 9f55 57bd 78b4 a93c
00000070: 3ffd 48be e7af 883d 8ab2 13bd fc2c 633d
00000080: 97df f9bd 6676 f6bc 2f19 f8bd 1460 073e
00000090: a591 3cbe 84d8 c53d 8eaa 363d 47f8 59be
000000a0: d9b8 9b3d 5c13 a03d 077a 13be 044d 49bd
000000b0: 2103 a43d c633 653d b419 7a3c 15e7 a13d
000000c0: e1e6 8d3d c43a 7ebc 618f 423e 80c0 dcbc
000000d0: a5be d4bd 21a6 42be 42f9 18bd 7df8 81be
000000e0: ac79 85bb 6f9b c93c 16c5 903c e133 01bc
000000f0: ee04 bd3d 79ca a43d cc43 9abc 5657 2c3d
00000100: ab47 663e 9dd0 7d3c cecb 73bd 4255 6abd
00000110: 7921 cabc adab 8c3c 949d 243e f0d3 bd3b
00000120: 19ec 0f3d ae77 c8bd 58d2 4fb9 4359 873c
00000130: a789 fa3d cd87 c9bb 5934 a23a c296 ab3d
00000140: 014e 1b3e 988a 26be 3f3b b9bd fc19 97bc
00000150: d160 07be 4ab5 2ebe e8af 483c fd03 c3bd
00000160: 12e6 6dbc 9248 613e e159 91be 7df3 943d
00000170: a9ca 1a3d ad0a c53d 79cb 26bd 33de 343d
00000180: f548 293d 7398 3b3d 99ad 91bd 2ae3 f0bd
00000190: 5aa8 ef3d e28a 893c cdb3 68be 41aa 95bd
000001a0: 2ebb 6abc baa3 a0bd 13b1 a13d 99fe e5bb
000001b0: 9395 e53c a635 1c3d 9155 df3d e327 853c
000001c0: 04e4 6dbd 4c84 723d 35fd bebd c31a 92bd
000001d0: 73e8 1d3c 5247 ae3d 90c6 af3d 8361 fb3d
000001e0: 50da 6abb 98d1 3a3d 1461 513d fb15 42bd
000001f0: daa3 63be e3b1 70be c7ad 4e3d 4abc f43d
00000200: a53a 2d3d 7b9a 0c3e b47a 34bd 89eb c0bd
00000210: 6ad5 833d 2e7e 54bd 6f2b 7dbe ad3d 5d3d
00000220: d849 be3a 5702 863d 84a5 8abd f855 bc3c
00000230: 5336 74bd 5af9 48bd c742 ffbd eb77 9b3d
00000240: a62c 373c e738 b8bd a025 5bbe bf27 193e
00000250: c70c f6bd f13c 0d3e 9bdb ec3d 8e94 aebd
00000260: f84a 1b3e 5e1f b73d 8a6b 81bd 2576 68bd
00000270: 32ac 323d cca0 bbbd 1bba d6bc 5781 8ebc
00000280: 75da 33bd e255 0abb 72da b9bd 8a46 02be
00000290: dc93 e4bd 5e19 143d 5298 873d 1161 1d3d
000002a0: 8264 56bc 92c3 30be c778 313e 3aed 3ebe
000002b0: 2515 9e3d 78d6 dcbd 0d95 6cbc 190a c3bd
000002c0: 936f 94bd f28a e4bd af0c ce38 7f28 f93c
000002d0: 9393 f8bd 7150 663d df70 1d3e 4138 08be
000002e0: 2fb7 20bd e53f a93d adaf d4bd 88b4 35bc
000002f0: f0e8 003e af2c b6bc 750e 14bd 7bea 8c3d
00000300: 0472 e8bd 5b7e 90bc edcc 71bd bf36 8ebc
00000310: bc40 853d 604a f6bd 33f9 d5bd b930 883d
00000320: b6de 613d 6670 a2bc 3bd2 6bbc 1750 dfbc
00000330: c493 2d3e 9bc1 b7bd 27f3 d23b 3cc2 3cbd
00000340: d3a5 6dbe 2227 813d b260 27bc b9ca 04be
00000350: 3efa e1bd b66e 163d ae99 65bd 8919 5e3d
00000360: 3d8f 503d d5ed cbbc 8b84 d63d 00ff 0b3d
00000370: 11c0 7fbd f9ce ab3d d20b 3cbc c7af bb3d
00000380: 9095 ac3d b8c5 ec3c fff6 54be 3b88 4fbd
00000390: 45d9 d83d dfda 923d 8860 533d a07e 1cbe
000003a0: 9176 4abd 5f63 933d 6e33 02bd acaf 3c3d
000003b0: 5857 893d f1f9 593c 7c65 833b 952c 2dbd
000003c0: ce78 1cbd c3c6 7a3e 53ce 3e3d b259 993c
000003d0: 5f1c a7bd eaec 3e3e ff97 113d 342e 313d
000003e0: cf38 ddbc 4007 413e 33e2 10be 4690 d8bd
000003f0: 7c80 2bbd 89d0 cf3d 3bf8 48bd 8880 44bc
-0.104903854 -0.19932103 -0.023771472 -0.07663178 0.060321044 -0.052418727 0.0537144 0.041243266
0.10787702 0.18754958 -0.09985998 -0.11760059 0.26753423 -0.09449613 -0.015750961 -0.05326911
0.13884246 -0.12834977 -0.06949353 -0.0037020592 0.04362116 -0.09918254 -0.10997339 -0.0041893665
0.056256894 0.14955339 -0.05257189 0.020715937 -0.19627856 0.06674176 -0.03605894 0.055462822
-0.122008495 -0.030085754 -0.121141784 0.13220245 -0.18414934 0.09660438 0.044596247 -0.21286117
0.07603616 0.078161925 -0.14402018 -0.049145713 0.08008409 0.055957578 0.015264917 0.079054035
0.06928802 -0.0155169405 0.19000007 -0.02694726 -0.10387925 -0.19008686 -0.037347086 -0.25384894
-0.0040733423 0.02461025 0.017672103 -0.007885904 0.09229456 0.08046431 -0.018831156 0.042075478
0.22488277 0.015491632 -0.059520535 -0.057210214 -0.024674164 0.017171705 0.16075736 0.005793087
0.03513727 -0.09788452 -0.00019819418 0.016522055 0.12233286 -0.006150222 0.001237522 0.08378364
0.15166475 -0.16263807 -0.090445034 -0.018445008 -0.13220526 -0.17061344 0.012248971 -0.09522245
-0.014520185 0.2200034 -0.28388885 0.07273004 0.037790928 0.09621177 -0.04072139 0.04415722
0.041329343 0.045799684 -0.07113189 -0.11762078 0.117020324 0.016789857 -0.22724839 -0.07307864
-0.014326854 -0.07843728 0.07895102 -0.007018876 0.028025424 0.0381371 0.10904992 0.016254371
-0.05807878 0.0592082 -0.09325639 -0.07134011 0.00963794 0.08509697 0.08582795 0.12274458
-0.003583569 0.04561004 0.05111797 -0.047384243 -0.22230473 -0.23505358 0.050458696 0.11949976
0.042292256 0.13730805 -0.04406233 -0.09419925 0.0643719 -0.051878147 -0.247236 0.054013897
0.0014517857 0.06543415 -0.06769851 0.022990212 -0.05962212 -0.049065925 -0.12463909 0.07591232
0.011180079 -0.08995228 -0.21401072 0.14956568 -0.12014156 0.13792779 0.11565324 -0.08524428
0.15165317 0.0894153 -0.063193396 -0.056753296 0.04362125 -0.09161529 -0.026211789 -0.017395658
-0.04390951 -0.002110832 -0.09074868 -0.12722221 -0.111610144 0.036157005 0.0662085 0.038422648
-0.013085486 -0.17262104 0.17331229 -0.18645182 0.07718877 -0.10783094 -0.014439833 -0.0952341
-0.072478436 -0.11159314 9.825208e-05 0.030414818 -0.121375225 0.05622906 0.15375088 -0.13302709
-0.039237197 0.0826414 -0.1038507 -0.011090405 0.12588859 -0.022238104 -0.0361466 0.06880661
-0.11349872 -0.017638376 -0.059033323 -0.01736009 0.06506488 -0.12025905 -0.104479216 0.06649918
0.055144034 -0.019828986 -0.014393385 -0.02725987 0.169509 -0.08972474 0.0064376774 -0.046083674
-0.23207788 0.06306292 -0.010215925 -0.12967958 -0.11034058 0.036726676 -0.056054763 0.05422357
0.050917853 -0.02489368 0.10474499 0.034178734 -0.06243903 0.08389086 -0.011477428 0.09164386
0.08426964 0.028902873 -0.20797347 -0.05066703 0.10588316 0.071706526 0.05160573 -0.15282679
-0.04942948 0.07196688 -0.03178733 0.04606597 0.067061126 0.01330422 0.0040099006 -0.042278845
-0.038201146 0.24489884 0.046583485 0.018719528 -0.08159708 0.18645063 0.035545345 0.043256953
-0.027004628 0.18850422 -0.14148788 -0.10574393 -0.04187058 0.10147197 -0.049064856 -0.011993535

network_body._body_endoder.seq_layers.2.bias f4 [128]
00000000: 2623 4dba 29e4 e8bc 9207 913c 8647 95bc
00000010: 52f0 883d c551 13bc c40e 07bc 2c6b 19bd
00000020: be81 7cbd b6d9 f8bc 29ee 1d3c 4787 a4bc
00000030: 389b b73b 2bc3 68bc c5f6 cfb9 8b00 31bd
00000040: 33ef c6bc 5db6 38bd b2a0 673d b438 47bd
00000050: cf02 403d 7351 5ebc 84c4 50bc ebd5 67bc
00000060: e4a6 3d3d 7e73 723c c1bf a63b e8d3 0dbd
00000070: 50b2 a739 a07b ea3b bac6 6c3d c90c fdbc
00000080: df0c 273d fc39 18bd 96fc 31bc 4d05 643d
00000090: d87d ca3b 766f 8f3b 18ab aebc 291b bc3c
000000a0: f67a 0a3c 1385 ecba 7e3d f739 4d43 d6bc
000000b0: 2dc0 593c f8d4 3e3d 1dce 3fbd 2112 afbc
000000c0: 7fda f4bc ba44 d7bc 4291 e6bc bf89 afbc
000000d0: 4c3f 78bb 6872 ea3c 14b0 0b3d a9c1 073c
000000e0: c200 06bd 2d0d 903d be40 bdbb 5fc6 21bd
000000f0: 6fc4 2bbd b22b 333c c09a 933a 7f20 e83b
00000100: 31f7 0dbc c608 a739 4836 54bd 3db5 703c
00000110: deba eebc 08e2 bdbb cd72 113c f8f2 1fbc
00000120: 998f 2cbc 2b62 97bb 25c8 06bd d238 3bbd
00000130: 4070 0bbc db5d 0c3d 769d 98bd dfe7 9e3c
00000140: 65a4 233d ea61 e23c 7705 1bbd 3a5e 9f3c
00000150: d06e 0b3c ebba 52bc 4c91 19bd 0962 273a
00000160: 43b8 0a3d 7a98 ffbc 8e63 5d3d 3361 4e3b
00000170: 200f cd3b 54da 01bd c502 c93d 9402 80bc
00000180: 1ace 40bc 8595 c73d 28de 823d aa08 fc3b
00000190: 4dbf c63c 832f 60bd 8688 173c 19c7 26bd
000001a0: d035 20bd 50e8 2b3d eed4 193d 8410 60bb
000001b0: b1da 17bd dca0 6a3d dbfc 5cbd 000c 04bd
000001c0: 55e2 463c d6d1 8a3d bfff 01bd ddfb f13c
000001d0: 28ad 58bb 56a2 b0bc 6569 d23c 7327 8bbd
000001e0: 584a 93bb f876 3a3d afb1 4cbc 3336 8c3d
000001f0: f20f 1cbd dcb7 2c3d b296 5cbc 081b 4f3c
-0.0007825367 -0.028429108 0.017703805 -0.018222582 0.066864625 -0.008991663 -0.0082432665 -0.037455723
-0.06164717 -0.03037725 0.009639301 -0.020084037 0.0056032203 -0.014206688 -0.00039665974 -0.04321341
-0.024283981 -0.04509579 0.056549735 -0.04863806 0.04687768 -0.013569224 -0.0127421655 -0.014150123
0.046301737 0.014798043 0.005088777 -0.034625918 0.00031985575 0.0071558505 0.057806708 -0.030889886
0.04078376 -0.037164673 -0.010863444 0.055669118 0.0061795525 0.004377301 -0.021321818 0.02296217
0.008452168 -0.001804503 0.00047157326 -0.026155138 0.013290447 0.04658982 -0.046827424 -0.02137095
-0.029889343 -0.026277889 -0.028145436 -0.021427987 -0.0037879525 0.028619006 0.034103468 0.008285918
-0.032715566 0.07033763 -0.00577554 -0.039495822 -0.04193538 0.010935711 0.0011261329 0.007083952
-0.008664892 0.0003185926 -0.05180958 0.014691648 -0.02914184 -0.0057947673 0.008877468 -0.009762518
-0.010532283 -0.004619857 -0.032905716 -0.045708485 -0.008510649 0.034269195 -0.07451908 0.019397674
0.0399517 0.02763458 -0.03784701 0.01945411 0.0085103065 -0.0128619475 -0.03749208 0.0006385153
0.033867132 -0.031200636 0.05405002 0.003149104 0.0062579066 -0.031702355 0.09814981 -0.01562623
-0.011767888 0.097453155 0.06390029 0.0076914625 0.024261141 -0.05473281 0.009248858 -0.040717218
-0.03911382 0.041969597 0.03755658 -0.0034189532 -0.037073795 0.057282314 -0.05395208 -0.032238007
0.012138923 0.06778304 -0.03173804 0.029539043 -0.0033062194 -0.021561783 0.025685022 -0.06794634
-0.0044949464 0.045523614 -0.012493535 0.06846275 -0.038101144 0.04216753 -0.013463663 0.012640722

action_model._continuous_distribution.log_sigma f4 [1, 2]
00000000: 0ddb 48be 7235 20be
-0.19614811 -0.15645388

action_model._continuous_distribution.mu.weight f4 [2, 128]
00000000: 13ac 58bd 8a46 0a3b 82a4 29bd 6261 e9bb
00000010: 9caa 45bd 0e7e 2ebd cea8 bf3c eff2 66bc
00000020: d525 3dbc b915 b53a 108d 9a3c 2ef4 58bc
00000030: 2c95 11bd 61f3 7cbd 7c50 cf3c a590 36bb
00000040: 3df2 a93b 5ea5 68ba 7685 1abd 2a53 353b
00000050: 4d2d 78bd e0fb 7b3b bdf3 3a3c 79f6 2dbc
00000060: 53c8 003e 24d0 90bd b3b3 643b 1691 023c
00000070: 973d cbbd efc1 dd3b 26fe c03d 17f1 f73b
00000080: 3eed 03bb db61 713b ba6e dc3c df1e 05ba
00000090: 671a 9b3c 6a3f 86bd 46c1 b13b e412 0f3d
000000a0: 5fa1 3a3b b513 41bd e50c 27bb 72ab 103c
000000b0: e705 133d 5843 163b e1e6 80bb 4ab1 8a3b
000000c0: f259 0ebd 09cd fbbb eb18 613c 86d7 1c3c
000000d0: 1b53 cb3c 79c1 153d c3dd 5c3d 9dbd bb3c
000000e0: 9536 2cbc d79b 52bc ced7 2b3d 1dd8 493c
000000f0: d2f3 463b 88f5 213c 765f 2b3d 8a18 653d
00000100: d8b6 ba3a c564 8a3c 9c9c 17ba 0b13 183c
00000110: ed91 4a38 4d25 453d 809f 273c e24f afbb
00000120: cc5a 3fbc 10c2 89bd 1813 bb3a 66e4 a33b
00000130: 50d6 48bd 0838 be3d 082a 993a 7f9a 6d3d
00000140: 0d87 b53d e4d0 9bbd 80fb 473b 231e 683d
00000150: d4c3 2c3d 4d34 04bc 0cd5 99bc d4d0 49bc
00000160: 60c8 3c3d 20fc 383c 4d0b 613d 6a36 3c3c
00000170: 292a 4c3c 4eed f5bb fc45 453d 7b2f c23c
00000180: a366 bb3b 99b0 e8bc f916 12bd 2dff 523c
00000190: 4fdc c4bc 03e7 933a 9cba 853d 2fc2 99bc
000001a0: 6958 dc3b 63c7 b23c 069c a2bb 74b1 dd3b
000001b0: 553d 263c 3d0d 2c3d 4a67 643b 2a0f c63c
000001c0: 5a10 ddbd 92f9 023d b0ab 50bb 11ba 313d
000001d0: e3d6 5b3c bf16 783c 0941 2c3d 4b4e 583b
000001e0: 5979 a2bc 6109 be3d bee1 45bc 7f33 b33d
000001f0: f967 25bc 980f 913c e936 f63c 5f78 123c
00000200: 6de9 5bbd d843 c4bc acec 0f3d a75b 023c
00000210: 2bbf 863d 7093 53bc 037b 2fbc 26c0 97bc
00000220: 9839 bfb9 0215 7abc 2286 a43c d1ab 4d3b
00000230: a4fc 323b 4bf8 05bd 7e1c cabc fbd8 81bc
00000240: 5016 0bbd f892 35bc def6 7f3d 7b9a 09bd
00000250: 29ca 813d 44c1 9abd cc52 9bbd 439a 3e3c
00000260: e4f0 dc3c 6a8f 92bc e4fc dc3b 84c6 11bb
00000270: 8eb5 5bbd 0add 823a f4a9 97bd 980a b4bd
00000280: 7e08 593d b152 d2bc ccb5 4bbd 6f4b 923d
00000290: bedf 0bbc c2ec d6bc 177e 823b 3430 11bc
000002a0: 4577 863b 46e7 4fbd f5b6 993c 7f02 0d3c
000002b0: 3581 893c 28f4 773d 08ae c8bc 4315 8fba
000002c0: d7fa a0bc 0a28 0bbc a4d8 88bc 1cbc cc3b
000002d0: aada d0bc a7c9 173c a15d 203d 7d70 90bb
000002e0: c6f8 c3bb c08e a43d 1dfa 8abc a2ab c2bc
000002f0: 7d78 aa3b 1aa2 7b3c ac81 5f3c 8ee9 f8bc
00000300: 0375 8639 6f97 533b 30b0 3d3c 7b78 e639
00000310: 4ce1 25bb 1cc3 50bd ef2f 793c 9fbe bbbd
00000320: 9460 6e3b d793 3abd 9c5e d63b c811 713a
00000330: 91ad e0bb a078 81bb bda5 353a 1ca8 a8bd
00000340: 1f66 fcbc 6336 88bc 8e2b 22bc 23e4 a5bd
00000350: 7bb3 c8bb acb7 90b9 af19 39bd 8990 853c
00000360: 6764 d83c ad30 d3bb 48b8 e83c 53a4 90bd
00000370: 974e 0f3c 5ce2 1fbd 3300 d23d 24a8 66bc
00000380: cc78 9abd 6841 cc3d bf17 ac3d 2bf8 9e3c
00000390: 8101 f53c 986d cdbb 6052 bdbd 46d8 fdbc
000003a0: 758f 553b 741b 1e3d 27f8 823d afa4 7cbd
000003b0: d7ea 34bc 5575 9a3d 3387 89b8 79e6 6cbb
000003c0: f82f 79bc a5e2 c03d 730e 773b 4e37 c3bb
000003d0: c25e 3b3c 2121 7dbd c7c1 1a3b cfcd 8f3a
000003e0: de97 733b 1104 85bb 082c 6fbd 21c8 953d
000003f0: 93b8 1dbc 4d6b 123c 049a 49bc 66cd be3c
-0.052898478 0.0021099173 -0.041416653 -0.0071222046 -0.04825841 -0.042600684 0.023395922 -0.014096006
-0.011544664 0.0013815678 0.018866092 -0.013241811 -0.035542652 -0.06175554 0.025306933 -0.002785721
0.0051863478 -0.0008874739 -0.037724935 0.0027667978 -0.060590077 0.003844969 0.011410651 -0.010617846
0.12576418 -0.0707095 0.0034897148 0.0079691615 -0.09923857 0.0067675035 0.09423475 0.007566582
-0.002013042 0.0036832008 0.026908267 -0.00050781475 0.018933488 -0.06555064 0.0054246513 0.034930125
0.0028477532 -0.047137935 -0.0025489863 0.008829938 0.0358943 0.0022928324 -0.003933773 0.0042325603
-0.034753747 -0.007684354 0.013738851 0.009572869 0.024819901 0.036561463 0.053922426 0.022917563
-0.01051106 -0.012854538 0.041953854 0.012319592 0.003035773 0.009885199 0.041839086 0.055931605
0.0014245166 0.016893754 -0.00057835295 0.009281884 4.8296457e-05 0.048131276 0.010230899 -0.005350099
-0.0116793625 -0.067264676 0.0014272658 0.0050015924 -0.04903251 0.09288031 0.00116855 0.058008667
0.088636495 -0.07608202 0.0030514896 0.056669366 0.042178944 -0.00806911 -0.018778346 -0.012317855
0.04608953 0.01129058 0.054942418 0.011487583 0.012461224 -0.0075050956 0.048162445 0.023704281
0.0057190224 -0.02840452 -0.03566644 0.012878221 -0.024030833 0.0011284057 0.065297335 -0.018769352
0.0067244065 0.02182359 -0.004962447 0.006765539 0.010146459 0.042004813 0.0034851604 0.024177153
-0.107941344 0.03197629 -0.0031840615 0.043390337 0.013417932 0.015142142 0.04205421 0.003300565
-0.019833254 0.09279133 -0.012077747 0.087500565 -0.01009559 0.017707631 0.03005548 0.0089398315
-0.05368941 -0.023958132 0.035137817 0.007956422 0.06579431 -0.01291357 -0.010710481 -0.01852424
-0.0003647327 -0.015263798 0.02008349 0.0031382928 0.002731123 -0.032707494 -0.02467179 -0.015850535
-0.033956826 -0.011082403 0.06249129 -0.03359459 0.06337387 -0.07556394 -0.075841516 0.011633459
0.026970334 -0.01789065 0.006744014 -0.0022243569 -0.05363994 0.0009984088 -0.07405463 -0.08791083
0.052986614 -0.025674196 -0.049733922 0.07143294 -0.008537231 -0.026235942 0.0039823162 -0.00886159
0.0041035735 -0.05075767 0.018763999 0.008606552 0.016785244 0.06053558 -0.024497047 -0.0010916371
-0.01965086 -0.008493433 -0.016704865 0.0062480103 -0.025494892 0.009264386 0.03915179 -0.004407941
-0.005980584 0.0803504 -0.016964966 -0.023763482 0.0052023516 0.015358472 0.013641756 -0.030384805
0.00025645652 0.0032286306 0.011577651 0.00043958783 -0.002531129 -0.05096732 0.015209182 -0.091672175
0.0036373483 -0.045551147 0.00654204 0.000919607 -0.006856628 -0.003951147 0.0006929299 -0.08235189
-0.030810414 -0.016627496 -0.00989808 -0.08100154 -0.0061249114 -0.00027602667 -0.04519051 0.016304271
0.026415063 -0.0064450116 0.028408185 -0.07062592 0.008746765 -0.039034232 0.10253944 -0.014078174
-0.075425714 0.09973413 0.08402967 0.019405445 0.029907944 -0.006269168 -0.092442274 -0.030986916
0.0032586728 0.0386004 0.063949876 -0.061680492 -0.011042318 0.075419106 -6.557852e-05 -0.0036148115
-0.015209191 0.09418229 0.0037697821 -0.0059575206 0.011436166 -0.061799172 0.0023614035 0.001097137
0.0037169377 -0.0040593226 -0.0583916 0.07313562 -0.009626525 0.008936715 -0.012304787 0.023291301

action_model._continuous_distribution.mu.bias f4 [2]
00000000: e567 033c bdb6 e73c
0.008020376 0.028285379

onnx::Div_51 f4 [8]
00000000: 31b9 383d fd40 393d 57c2 113f 6c56 323e
00000010: 5d88 193f fd45 e03e 9520 173f 79f3 e13e
0.045098487 0.045227993 0.56937164 0.1741578 0.599737 0.43803397 0.5903409 0.44131067
